…
03/20/2022 09:34:43 PM: [ Build word dictionary ]
03/20/2022 09:34:45 PM: [ Num words in source = 50000 and target = 30000 ]
03/20/2022 09:34:45 PM: [ Trainable #parameters [encoder-decoder] 8.14M [total] 49.1M ]
03/20/2022 09:34:45 PM: [ Breakdown of the trainable paramters
+---------------------------------------------------------------+--------------+----------+
| Layer Name                                                    | Output Shape |  Param # |
+---------------------------------------------------------------+--------------+----------+
| embedder.src_word_embeddings.make_embedding.emb_luts.0.weight | [50000, 512] | 25600000 |
| embedder.tgt_word_embeddings.make_embedding.emb_luts.0.weight | [30000, 512] | 15360000 |
| encoder.encoder.rnns.0.weight_ih_l0                           |  [1024, 512] |   524288 |
| encoder.encoder.rnns.0.weight_hh_l0                           |  [1024, 256] |   262144 |
| encoder.encoder.rnns.0.bias_ih_l0                             |       [1024] |     1024 |
| encoder.encoder.rnns.0.bias_hh_l0                             |       [1024] |     1024 |
| encoder.encoder.rnns.0.weight_ih_l0_reverse                   |  [1024, 512] |   524288 |
| encoder.encoder.rnns.0.weight_hh_l0_reverse                   |  [1024, 256] |   262144 |
| encoder.encoder.rnns.0.bias_ih_l0_reverse                     |       [1024] |     1024 |
| encoder.encoder.rnns.0.bias_hh_l0_reverse                     |       [1024] |     1024 |
| encoder.encoder.rnns.1.weight_ih_l0                           |  [1024, 512] |   524288 |
| encoder.encoder.rnns.1.weight_hh_l0                           |  [1024, 256] |   262144 |
| encoder.encoder.rnns.1.bias_ih_l0                             |       [1024] |     1024 |
| encoder.encoder.rnns.1.bias_hh_l0                             |       [1024] |     1024 |
| encoder.encoder.rnns.1.weight_ih_l0_reverse                   |  [1024, 512] |   524288 |
| encoder.encoder.rnns.1.weight_hh_l0_reverse                   |  [1024, 256] |   262144 |
| encoder.encoder.rnns.1.bias_ih_l0_reverse                     |       [1024] |     1024 |
| encoder.encoder.rnns.1.bias_hh_l0_reverse                     |       [1024] |     1024 |
| decoder.decoder.rnn.weight_ih_l0                              |  [2048, 512] |  1048576 |
| decoder.decoder.rnn.weight_hh_l0                              |  [2048, 512] |  1048576 |
| decoder.decoder.rnn.bias_ih_l0                                |       [2048] |     2048 |
| decoder.decoder.rnn.bias_hh_l0                                |       [2048] |     2048 |
| decoder.decoder.rnn.weight_ih_l1                              |  [2048, 512] |  1048576 |
| decoder.decoder.rnn.weight_hh_l1                              |  [2048, 512] |  1048576 |
| decoder.decoder.rnn.bias_ih_l1                                |       [2048] |     2048 |
| decoder.decoder.rnn.bias_hh_l1                                |       [2048] |     2048 |
| decoder.decoder.attn.linear_in.weight                         |   [512, 512] |   262144 |
| decoder.decoder.attn.linear_out.weight                        |  [512, 1024] |   524288 |
| generator.bias                                                |      [30000] |    30000 |
| copy_generator.linear_copy.weight                             |     [1, 512] |      512 |
| copy_generator.linear_copy.bias                               |          [1] |        1 |
+---------------------------------------------------------------+--------------+----------+ ]
03/20/2022 09:34:49 PM: [ ---------------------------------------------------------------------------------------------------- ]
03/20/2022 09:34:49 PM: [ Make data loaders ]
03/20/2022 09:34:49 PM: [ ---------------------------------------------------------------------------------------------------- ]
…
