…
04/20/2022 07:46:09 AM: [ Build word dictionary ]
04/20/2022 07:46:13 AM: [ Num words in source = 44189 and target = 20456 ]
04/20/2022 07:46:13 AM: [ Trainable #parameters [encoder-decoder] 8.14M [total] 41.3M ]
04/20/2022 07:46:13 AM: [ Breakdown of the trainable paramters
+---------------------------------------------------------------+--------------+----------+
| Layer Name                                                    | Output Shape |  Param # |
+---------------------------------------------------------------+--------------+----------+
| embedder.src_word_embeddings.make_embedding.emb_luts.0.weight | [44189, 512] | 22624768 |
| embedder.tgt_word_embeddings.make_embedding.emb_luts.0.weight | [20456, 512] | 10473472 |
| encoder.encoder.rnns.0.weight_ih_l0                           |  [1024, 512] |   524288 |
| encoder.encoder.rnns.0.weight_hh_l0                           |  [1024, 256] |   262144 |
| encoder.encoder.rnns.0.bias_ih_l0                             |       [1024] |     1024 |
| encoder.encoder.rnns.0.bias_hh_l0                             |       [1024] |     1024 |
| encoder.encoder.rnns.0.weight_ih_l0_reverse                   |  [1024, 512] |   524288 |
| encoder.encoder.rnns.0.weight_hh_l0_reverse                   |  [1024, 256] |   262144 |
| encoder.encoder.rnns.0.bias_ih_l0_reverse                     |       [1024] |     1024 |
| encoder.encoder.rnns.0.bias_hh_l0_reverse                     |       [1024] |     1024 |
| encoder.encoder.rnns.1.weight_ih_l0                           |  [1024, 512] |   524288 |
| encoder.encoder.rnns.1.weight_hh_l0                           |  [1024, 256] |   262144 |
| encoder.encoder.rnns.1.bias_ih_l0                             |       [1024] |     1024 |
| encoder.encoder.rnns.1.bias_hh_l0                             |       [1024] |     1024 |
| encoder.encoder.rnns.1.weight_ih_l0_reverse                   |  [1024, 512] |   524288 |
| encoder.encoder.rnns.1.weight_hh_l0_reverse                   |  [1024, 256] |   262144 |
| encoder.encoder.rnns.1.bias_ih_l0_reverse                     |       [1024] |     1024 |
| encoder.encoder.rnns.1.bias_hh_l0_reverse                     |       [1024] |     1024 |
| decoder.decoder.rnn.weight_ih_l0                              |  [2048, 512] |  1048576 |
| decoder.decoder.rnn.weight_hh_l0                              |  [2048, 512] |  1048576 |
| decoder.decoder.rnn.bias_ih_l0                                |       [2048] |     2048 |
| decoder.decoder.rnn.bias_hh_l0                                |       [2048] |     2048 |
| decoder.decoder.rnn.weight_ih_l1                              |  [2048, 512] |  1048576 |
| decoder.decoder.rnn.weight_hh_l1                              |  [2048, 512] |  1048576 |
| decoder.decoder.rnn.bias_ih_l1                                |       [2048] |     2048 |
| decoder.decoder.rnn.bias_hh_l1                                |       [2048] |     2048 |
| decoder.decoder.attn.linear_in.weight                         |   [512, 512] |   262144 |
| decoder.decoder.attn.linear_out.weight                        |  [512, 1024] |   524288 |
| generator.bias                                                |      [20456] |    20456 |
| copy_generator.linear_copy.weight                             |     [1, 512] |      512 |
| copy_generator.linear_copy.bias                               |          [1] |        1 |
+---------------------------------------------------------------+--------------+----------+ ]
04/20/2022 07:46:16 AM: [ ---------------------------------------------------------------------------------------------------- ]
04/20/2022 07:46:16 AM: [ Make data loaders ]
04/20/2022 07:46:16 AM: [ ---------------------------------------------------------------------------------------------------- ]
…
